…
  output_attention_mul = merge([inputs, a_probs], mode='mul')
/home/timmy/anaconda3/lib/python3.6/site-packages/keras/legacy/layers.py:465: UserWarning: The `Merge` layer is deprecated and will be removed after 08/2017. Use instead layers from `keras.layers.merge`, e.g. `add`, `concatenate`, etc.
  name=name)
__________________________________________________________________________________________________
Layer (type)                    Output Shape         Param #     Connected to                     
==================================================================================================
input (InputLayer)              (None, 200)          0                                            
__________________________________________________________________________________________________
embedding_1 (Embedding)         (None, 200, 256)     64256       input[0][0]                      
__________________________________________________________________________________________________
spatial_dropout1d_1 (SpatialDro (None, 200, 256)     0           embedding_1[0][0]                
__________________________________________________________________________________________________
bidirectional_1 (Bidirectional) (None, 200, 100)     92400       spatial_dropout1d_1[0][0]        
__________________________________________________________________________________________________
bidirectional_2 (Bidirectional) (None, 200, 100)     60800       bidirectional_1[0][0]            
__________________________________________________________________________________________________
bidirectional_3 (Bidirectional) (None, 200, 100)     45600       bidirectional_1[0][0]            
__________________________________________________________________________________________________
permute_1 (Permute)             (None, 100, 200)     0           bidirectional_2[0][0]            
__________________________________________________________________________________________________
permute_3 (Permute)             (None, 100, 200)     0           bidirectional_3[0][0]            
__________________________________________________________________________________________________
reshape_1 (Reshape)             (None, 100, 200)     0           permute_1[0][0]                  
__________________________________________________________________________________________________
reshape_2 (Reshape)             (None, 100, 200)     0           permute_3[0][0]                  
__________________________________________________________________________________________________
dense_1 (Dense)                 (None, 100, 200)     40200       reshape_1[0][0]                  
__________________________________________________________________________________________________
dense_2 (Dense)                 (None, 100, 200)     40200       reshape_2[0][0]                  
__________________________________________________________________________________________________
lambda_1 (Lambda)               (None, 200)          0           dense_1[0][0]                    
__________________________________________________________________________________________________
lambda_2 (Lambda)               (None, 200)          0           dense_2[0][0]                    
__________________________________________________________________________________________________
repeat_vector_1 (RepeatVector)  (None, 100, 200)     0           lambda_1[0][0]                   
__________________________________________________________________________________________________
repeat_vector_2 (RepeatVector)  (None, 100, 200)     0           lambda_2[0][0]                   
__________________________________________________________________________________________________
permute_2 (Permute)             (None, 200, 100)     0           repeat_vector_1[0][0]            
__________________________________________________________________________________________________
permute_4 (Permute)             (None, 200, 100)     0           repeat_vector_2[0][0]            
__________________________________________________________________________________________________
merge_1 (Merge)                 (None, 200, 100)     0           bidirectional_2[0][0]            
                                                                 permute_2[0][0]                  
__________________________________________________________________________________________________
merge_2 (Merge)                 (None, 200, 100)     0           bidirectional_3[0][0]            
                                                                 permute_4[0][0]                  
__________________________________________________________________________________________________
flatten_1 (Flatten)             (None, 20000)        0           merge_1[0][0]                    
__________________________________________________________________________________________________
flatten_2 (Flatten)             (None, 20000)        0           merge_2[0][0]                    
__________________________________________________________________________________________________
dropout_1 (Dropout)             (None, 20000)        0           flatten_1[0][0]                  
__________________________________________________________________________________________________
dropout_2 (Dropout)             (None, 20000)        0           flatten_2[0][0]                  
__________________________________________________________________________________________________
dense_3 (Dense)                 (None, 1)            20001       dropout_1[0][0]                  
__________________________________________________________________________________________________
dense_4 (Dense)                 (None, 1)            20001       dropout_2[0][0]                  
__________________________________________________________________________________________________
average_1 (Average)             (None, 1)            0           dense_3[0][0]                    
                                                                 dense_4[0][0]                    
==================================================================================================
Total params: 383,458
Trainable params: 383,458
Non-trainable params: 0
__________________________________________________________________________________________________
…
