…
C:\ProgramData\Anaconda3\lib\site-packages\h5py\__init__.py:36: FutureWarning: Conversion of the second argument of issubdtype from `float` to `np.floating` is deprecated. In future, it will be treated as `np.float64 == np.dtype(float).type`.
  from ._conv import register_converters as _register_converters
Using TensorFlow backend.
model creating...
__________________________________________________________________________________________________
Layer (type)                    Output Shape         Param #     Connected to
==================================================================================================
input (InputLayer)              (None, 200)          0
__________________________________________________________________________________________________
embedding_1 (Embedding)         (None, 200, 256)     64256       input[0][0]
__________________________________________________________________________________________________
spatial_dropout1d_1 (SpatialDro (None, 200, 256)     0           embedding_1[0][0]
__________________________________________________________________________________________________
bidirectional_1 (Bidirectional) (None, 200, 80)      71520       spatial_dropout1d_1[0][0]
__________________________________________________________________________________________________
bidirectional_2 (Bidirectional) (None, 200, 80)      39040       bidirectional_1[0][0]
__________________________________________________________________________________________________
bidirectional_3 (Bidirectional) (None, 200, 80)      29280       bidirectional_1[0][0]
__________________________________________________________________________________________________
attention_1 (Attention)         (None, 80)           280         bidirectional_2[0][0]
__________________________________________________________________________________________________
attention_2 (Attention)         (None, 80)           280         bidirectional_3[0][0]
__________________________________________________________________________________________________
dropout_1 (Dropout)             (None, 80)           0           attention_1[0][0]
__________________________________________________________________________________________________
dropout_2 (Dropout)             (None, 80)           0           attention_2[0][0]
__________________________________________________________________________________________________
dense_1 (Dense)                 (None, 1)            81          dropout_1[0][0]
__________________________________________________________________________________________________
dense_2 (Dense)                 (None, 1)            81          dropout_2[0][0]
__________________________________________________________________________________________________
average_1 (Average)             (None, 1)            0           dense_1[0][0]
                                                                 dense_2[0][0]
==================================================================================================
Total params: 204,818
Trainable params: 204,818
Non-trainable params: 0
__________________________________________________________________________________________________
nsml binding...
data loading...
…
